Model: "sequential"
_________________________________________________________________
Layer (type)                 Output Shape              Param #
=================================================================
reshape (Reshape)            (None, 512, 1)            0
_________________________________________________________________
conv1d (Conv1D)              (None, 508, 32)           192
_________________________________________________________________
conv1d_1 (Conv1D)            (None, 504, 64)           10304
_________________________________________________________________
max_pooling1d (MaxPooling1D) (None, 252, 64)           0
_________________________________________________________________
flatten (Flatten)            (None, 16128)             0
_________________________________________________________________
dense (Dense)                (None, 512)               8258048
=================================================================
Total params: 8,268,544
Trainable params: 8,268,544
Non-trainable params: 0
_________________________________________________________________
None